Model: "sequential"
_________________________________________________________________
Layer (type)                 Output Shape              Param #   
=================================================================
conv1d (Conv1D)              (None, 3998, 8)           96        
_________________________________________________________________
conv1d_1 (Conv1D)            (None, 399, 16)           1424      
_________________________________________________________________
conv1d_2 (Conv1D)            (None, 39, 16)            2832      
_________________________________________________________________
conv1d_3 (Conv1D)            (None, 6, 8)              1416      
_________________________________________________________________
flatten (Flatten)            (None, 48)                0         
_________________________________________________________________
dense (Dense)                (None, 2)                 98        
=================================================================
Total params: 5,866
Trainable params: 5,866
Non-trainable params: 0
_________________________________________________________________

Fetching files from /cr/tempdata01/filip/QGSJET-II/protons/19_19.5/DAT548312.csv
Fetching files from /cr/tempdata01/filip/QGSJET-II/protons/19_19.5/DAT512758.csv
Fetching files from /cr/tempdata01/filip/QGSJET-II/protons/16_16.5/DAT090563.csv
…
