Model: "sequential"
_________________________________________________________________
Layer (type)                 Output Shape              Param #   
=================================================================
conv1d (Conv1D)              (None, 3998, 8)           96        
_________________________________________________________________
conv1d_1 (Conv1D)            (None, 399, 16)           1424      
_________________________________________________________________
conv1d_2 (Conv1D)            (None, 39, 16)            2832      
_________________________________________________________________
conv1d_3 (Conv1D)            (None, 6, 8)              1416      
_________________________________________________________________
flatten (Flatten)            (None, 48)                0         
_________________________________________________________________
dense (Dense)                (None, 2)                 98        
=================================================================
Total params: 5,866
Trainable params: 5,866
Non-trainable params: 0
_________________________________________________________________

Epoch 1/2
26558/26558 - 12570s - loss: 0.0747 - accuracy: 0.9821 - val_loss: 0.0738 - val_accuracy: 0.9837
Epoch 2/2
26558/26558 - 9205s - loss: 0.0707 - accuracy: 0.9845 - val_loss: 0.0698 - val_accuracy: 0.9849
