Model: "sequential"
_________________________________________________________________
Layer (type)                 Output Shape              Param #   
=================================================================
dense (Dense)                (None, 4000)              240004000 
_________________________________________________________________
dropout (Dropout)            (None, 4000)              0         
_________________________________________________________________
dense_1 (Dense)              (None, 100)               400100    
_________________________________________________________________
dropout_1 (Dropout)          (None, 100)               0         
_________________________________________________________________
Output (Dense)               (None, 2)                 202       
=================================================================
Total params: 240,404,302
Trainable params: 240,404,302
Non-trainable params: 0
_________________________________________________________________
None

3652/3652 - 8774s - loss: 0.0662 - accuracy: 0.9851 - val_loss: 0.0106 - val_accuracy: 0.9972
